MiniProject_Model/network.pt (torch, 85246 bytes, 115 tensors)

embedder.embeddings.0.weight f4 [26, 13]
00000000: 298e c7bf 59ce a4bf 891f 203f 2a4a 69bf
00000010: ff33 153f 4db2 1f3f a58e ad3e 80f8 fcbf
00000020: 2f6d 8a3e 7a83 52bf 5687 5bbf 97b6 f93d
00000030: ab08 c93e e19c f33f e70a 0e3f e866 223f
00000040: 219a d2bf c19d 82bf 7fec 813e 8b8f 743e
00000050: cea1 513f 7881 44bf d120 c6bb f882 9c3f
00000060: c9ba 703f 851b e2be ff68 11bf 8c15 e7be
00000070: 083f ad3f 01ae b63f f4e5 383f eacc 5dbf
00000080: 07cf 00bf 0a49 653d 7c76 1abd 50fb 6b3e
00000090: 4b2b 2c3e 883d 9fbe 885a 993e b62c 143f
000000a0: 8be6 77be a133 4d3f 82fa b0bf 6312 e13d
000000b0: 7403 993f ced5 f13f b480 babf 5894 51bf
000000c0: 9bf6 e7be 6cee df3e 620a 1b3f 26cc df3e
000000d0: df64 50bf 58ee efbe 494f ad3c 0471 ca3e
000000e0: 844d b9bf ae27 793f f0e2 bd3f dd74 6140
000000f0: 856b c0bf 99d0 89bf 7e97 cf3e de0f 59bf
00000100: 59ba 90bf cedc ec3f 20a0 e43e bb2f cd3f
00000110: 1193 debf 3f18 4e40 eb59 b1be 6f49 fd3e
00000120: c295 bfbf 78da 6cbf 90e7 83bf 38c7 43bf
00000130: bdcb b9bf 0826 eb3f d602 3f3f 0e78 4b3f
00000140: 99e2 b73f 6ba8 93be f9d2 04bf b442 333f
00000150: dd95 b83f ecfe 5cbf 9423 1f3f 684f b4bd
00000160: e6f2 343f 7d94 d33f e9a4 d9be da5f 6f3f
00000170: b0b6 263c c154 d0bf b07a 7a3f e2f2 5b3f
00000180: 26a5 0240 a145 10c0 aec5 663f af5b a33f
00000190: c3eb 38c0 851a cdbf 9a0b 83bf 46f9 c33e
000001a0: 3248 e83e e957 bd3f 42ff 0ebf a017 7a3f
000001b0: 6ced aa3f 3c1e cabf 93d7 913f 1d0d 1cc0
000001c0: bc9f b7bf a0ec 2dc0 9718 d33e ea10 41be
000001d0: 1fd7 943f dade 353f 73b9 20bf 5d4c 9b3e
000001e0: aa34 c9bf 9fa2 6ebc 17c7 ec3f 6f9e 15bf
000001f0: f718 233d 2623 653f 5cd3 843f 54ec 5c40
00000200: 6dd7 0fbf 7c55 563e bace de3e 78f0 cc3f
00000210: 8663 af3e 936e 823f d46d 1e40 3fe2 a1bf
00000220: 6dcb a63e d61b bcbf 1cdc 8cbf f5ac 16c0
00000230: 78d2 ac3f 65bc 34bf 1c2b 4c3f 1a85 09bf
00000240: 78fb 64bf 8f68 17be b988 2abd 3d7a 6b3f
00000250: 1d7b 17be 05b3 9d3e 241b 2b3e 0da9 a33d
00000260: b45d f83e 04d4 41bf fbeb aebf 9ba6 20bf
00000270: 83b1 993e ad0f 833e 6cac c53f 1ff5 66be
00000280: bd67 443f 94ac d4be b8a2 113e 0782 4a3e
00000290: 0635 733f 2c0b 85be 6d09 3b3f e51e 113f
000002a0: 558d 673f e8c6 113f 53b6 95be 7479 1a3e
000002b0: 6ae8 dabf b79a a3bf a45a 4a3e b503 a2bf
000002c0: 8bf6 2bbf 5242 1ebf fe3d aabf 354e 933f
000002d0: 903c f33f ef66 b83d 9261 8c3f 2df1 d93f
000002e0: 6536 82bf 0749 d23e 6a98 fa3f b719 06bf
000002f0: f610 883f f604 dabf b63e 9ebf bb9e 05c0
00000300: 38b7 18be f987 20be a1e1 573e b5d9 9abf
00000310: 2c05 823e 7c34 3b3f cf3a 1a3f 410c 503f
00000320: 2a39 78bf c813 56bf 5cb1 db3e 4aa5 3d3f
00000330: 8473 9f3f 5e72 45c0 92d3 143f 39fd 92bf
00000340: 4423 4b3f d6aa 9dbd a1cf 9e3f b7b4 aa3f
00000350: ded5 15bf 37f2 773f f5b2 1fbf 66e0 3ebf
00000360: 9532 ebbd 8f5a a03f eb95 6ebf 78f3 4a3f
00000370: 5a57 a53e 6411 013f 25e3 54bf ab55 17be
00000380: 270e 843f 22fe 9c3f 2206 083f a5a8 d9be
00000390: 3be3 c73e 036d 7e3f f5af 37be c370 f6be
000003a0: a136 cf3e 6d02 1dbf 2659 aebe d14f cf3e
000003b0: e1ea 44bf 8e49 673e a6e4 b63f 7962 ccbf
000003c0: e698 7dbf dd6c c6bf b913 213d d804 09bf
000003d0: 2b19 a03f bde5 d73e b0d7 173d 50e8 83bf
000003e0: a213 0cbf 45f0 153f bf18 f63e 2f26 4bbf
000003f0: 3753 4cbf 7990 763e daaa bb3f 637a d1bb
-1.5590259 -1.2875472 0.6254812 -0.9112879 0.58282465 0.6238144 0.33897892 -1.9763336
0.27036425 -0.8223187 -0.8575338 0.121930294 0.39264426 1.9032251 0.55485386 0.6343827
-1.6453286 -1.0204393 0.25375745 0.23882882 0.8188752 -0.76760054 -0.0060463925 1.2227468
0.9403501 -0.4416162 -0.56800836 -0.45133626 1.3534861 1.4271852 0.7222588 -0.866408
-0.503159 0.05597786 -0.03771065 0.23045087 0.1681339 -0.31101632 0.29951882 0.57880723
-0.24209039 0.80156904 -1.3826449 0.10989835 1.1954179 1.8893373 -1.4570527 -0.8186698
-0.45305333 0.4373659 0.6056272 0.4371044 -0.8140392 -0.4686153 0.02115597 0.3953935
-1.4476781 0.9732617 1.4834881 3.5227578 -1.5032812 -1.0766784 0.40545267 -0.84789836
-1.1306869 1.8504884 0.44653416 1.6030191 -1.7388631 3.2202299 -0.34638914 0.49470088
-1.4967577 -0.92520857 -1.0305042 -0.7647586 -1.4515301 1.8370981 0.746137 0.79480064
1.4366027 -0.2883943 -0.5188442 0.70023656 1.4420735 -0.8632648 0.6216366 -0.08804208
0.70683134 1.652969 -0.4250863 0.9350563 0.010175392 -1.6275865 0.97843456 0.85917485
2.0413299 -2.2542498 0.90145385 1.2762355 -2.8893898 -1.6023718 -1.0237916 0.38276118
0.4536758 1.4792453 -0.5585824 0.976923 1.3353705 -1.5790477 1.1393913 -2.4383004
-1.4345622 -2.7175674 0.41229698 -0.18854108 1.162815 0.7104317 -0.62782973 0.30331698
-1.5719197 -0.014565139 1.8498257 -0.58444875 0.03981873 0.8950676 1.0377002 3.4519243
-0.5618809 0.20931047 0.43517095 1.6010885 0.34255618 1.0189995 2.4754534 -1.264717
0.32577077 -1.4695995 -1.1004672 -2.3543065 1.350173 -0.7059997 0.7975328 -0.5371872
-0.8944621 -0.1478598 -0.041634295 0.91983396 -0.14793058 0.30800644 0.16709572 0.07991228
0.4850899 -0.75714135 -1.3665766 -0.6275422 0.30018243 0.25597897 1.5443244 -0.22554444
0.7672079 -0.41537917 0.14222229 0.19776164 0.9500278 -0.25985086 0.7306126 0.56687766
0.9045003 0.5694413 -0.29240665 0.15085393 -1.7102177 -1.278159 0.19761139 -1.2657381
-0.6717307 -0.61819947 -1.3300169 1.1508242 1.9002857 0.09004008 1.0967276 1.7026726
-1.017285 0.4107134 1.9577763 -0.5238299 1.0630176 -1.7032764 -1.2362888 -2.0878131
-0.14913642 -0.1567687 0.21082164 -1.2097689 0.2539457 0.7312696 0.60245985 0.812687
-0.96962225 -0.83623934 0.42908752 0.74080336 1.2457128 -3.0851054 0.5813533 -1.1483527
0.79350686 -0.076986 1.2407113 1.33364 -0.5852946 0.96853966 -0.6238244 -0.74561155
-0.11484257 1.2527636 -0.93197507 0.79277754 0.32293206 0.5041716 -0.83159095 -0.14778773
1.0316819 1.2265055 0.5313436 -0.42511478 0.3904055 0.9938509 -0.17938216 -0.48132905
0.40471366 -0.61331826 -0.3405239 0.40490583 -0.76920897 0.22586653 1.4288528 -1.5967551
-0.9906143 -1.5501972 0.03932545 -0.53523016 1.2507681 0.42167464 0.03707093 -1.0305271
-0.5471746 0.5856975 0.48065755 -0.7935514 -0.79814476 0.2407855 1.4661515 -0.0063927635

embedder.embeddings.1.weight f4 [7, 4]
00000000: 1f4a c23f ddb2 c53f 5ec0 afbe 920e e43f
00000010: 0c9f a43c 8c78 1640 b09a b6bd c95d bb3d
00000020: 0290 ac3f 95e5 36bf 3139 a3bf 603d d4be
00000030: 6238 08c0 9ac8 fbbf a0e9 8c3f 38e7 563f
00000040: 3632 303f b257 aa3e b699 2c3e 8377 d9bf
00000050: 6d2c 593e 5dd3 8d3f b9e4 8a3f 7c40 8140
00000060: 730d c23f e3fd cebf bcc9 08bf 47c6 473f
1.517887 1.544521 -0.34326452 1.7816947 0.02009537 2.3511076 -0.08916223 0.091487475
1.3481448 -0.71444064 -1.2751828 -0.41453075 -2.1284413 -1.9670594 1.1008797 0.8394656
0.68826616 0.3327003 0.16855511 -1.6989597 0.21208353 1.1080128 1.0851051 4.0391216
1.5160354 -1.617123 -0.5343282 0.7803692

embedder.embeddings.2.weight f4 [21, 11]
00000000: 5fff 653f 87da 843f 7e52 38be 2db2 873e
00000010: 9751 873e 1271 16c0 185e 173f e9ed e5be
00000020: 8152 4fbf d2de 01c0 51c7 d53f 0c78 6ebf
00000030: 4e3d 2b3f 1d7c 143f d7ac 3dbf c9ee ce3d
00000040: 1225 fbbe c600 9c3d bc8d 76bf fcd2 503f
00000050: 9ff0 8cbf 5053 b23f 17aa 3fbf d413 1d3e
00000060: c9b6 74be e6e7 6cbf 6379 95bf 74af 513f
00000070: 3ed6 823f 6274 0840 e39b ac3f c931 92bf
00000080: 9c9b 8a3d f839 973f 479f cf3f a4a7 ad3f
00000090: 4b35 e4be fb8b 233f eaaf 603f d3ee acbe
000000a0: 84d7 71bf 146e bebd 0a3c 27be 3c39 4f3e
000000b0: 8fd2 ba3e 7497 3fbf f85b 813f 3c52 a7be
000000c0: 066e 603f cc80 f83e 9bb2 0cc0 cfc3 c4bd
000000d0: 6dd5 543f 8105 97bf 0887 5840 4f70 1ebe
000000e0: f1cc 053f 4a75 96bf 06ec 7abd 658a 05bf
000000f0: 6927 cc3f 33e5 c23f 42fb 82bd e0ba 0f40
00000100: 34e1 a03e 1c4d 603f 3aa2 513f bad4 eabf
00000110: f055 80be 84c6 b1bc 2fa8 0f3f 4953 9b3d
00000120: 4553 35bf 5121 85be bc7b 63bf a38c f03e
00000130: f0c9 c3bf 124c 313f 9eb9 40bf c65c 82bf
00000140: fbd8 293f 230c 13be 625e 38bf 32b7 2ebf
00000150: 322e 463e ad2f 91bf bcf1 3abe c4ba 483f
00000160: 2a38 6dbf 062b eebf 76b1 a8bd 634b 993f
00000170: 4e0d bd3e 170b 5ebf bfb3 59bf 9da2 f83f
00000180: 7e55 353e 01e6 ce3b a4e0 10bd 7866 2e3f
00000190: 7396 36bf c96c 07bf 9cf3 63bf 0a7a 41bf
000001a0: 53b8 06c0 c57a 99bf 82d9 afbe 0ff5 073f
000001b0: d276 e7bf ab34 ecbf 861e e4bd 0579 d8bb
000001c0: 8fed 543f 6e7e 56c0 0819 0abd 81a3 77bf
000001d0: b9bf b3bf 24b7 c93f 060e 03c0 6266 523f
000001e0: 3fa6 173f b1a0 053f 3b84 19bf 1cb9 9b3f
000001f0: 1125 d4bf 8ba3 ae3f b5fb 5d3f d10b 873f
00000200: ce9d db3f 77ed 9ebf 3aa4 67bf 91c6 6f3e
00000210: 4208 10c0 9481 f3bf 703d 413d e874 e6be
00000220: be56 b03f d8d9 35be 8612 a33f 4850 543f
00000230: 98a4 5b40 f588 afbf 6c18 363f e241 22bf
00000240: 6e54 c13f 28c4 5ebe 1051 ec3e 52cb 5b3e
00000250: b332 d0bd 8ff3 19bf 2368 a8be 0d7c 1ac0
00000260: 6299 353f e432 df3e dc82 94bf 16ec 6340
00000270: 6fdc 0f3e b7ab d2be 1b67 553f e6cd ca3f
00000280: f12c bcbf 0428 48be a1e6 66bf 7b64 d03e
00000290: 4ffa d53f 0e19 323e 38df 04bf a796 1b3f
000002a0: 8e49 c93f c87f 3b3f d3a1 0fbf fa0e ecbc
000002b0: a6d1 fcbd 84a3 5dbf e64a ac3e 7589 0540
000002c0: f11e b43d 17d9 9abf 7535 b2bf 3491 1a3f
000002d0: 849f f8be 761d 02c0 7e1a 4340 5eeb ce3f
000002e0: 3613 093f d3cd 94be 5777 11bf facd 2a3e
000002f0: a212 5bbf 2a3c 0cc0 c1da 98bf 475b 4cbe
00000300: 0e68 5c3f 3d83 36be 7511 803e dd84 c4bf
00000310: 0680 793f 51ec e93f 1f8d 7ebe 7a4a 23bf
00000320: cccd 09bf 50d1 22be d7ca 97be cbed 1f40
00000330: a127 cf3f 4c87 d1bd afc7 883f 1561 1a40
00000340: 71fd 9fbf 0e83 673f 60aa 1d3e 8021 dbbd
00000350: 2d93 943e 0e56 b43e 6b95 2bbf 2510 ef3e
00000360: cb10 143f 8af9 44bf 887d 3a3e 78fa 83bf
00000370: cffc 62bf 44a2 4dbf 6065 a43e ab7c 6c3e
00000380: d74c 823f 783c c5bf 656d ca3f 6d17 b4be
00000390: 0393 93bf 3a16 4dbe 8140 723f
0.8984279 1.0379189 -0.18000218 0.26503125 0.26429436 -2.3506513 0.5912795 -0.44908074
-0.80985266 -2.0292249 1.6701452 -0.93151927 0.6689042 0.5800188 -0.7409186 0.101041384
-0.4905172 0.07617335 -0.9631002 0.81571937 -1.1010932 1.3931675 -0.7486891 0.15339595
-0.23897852 -0.9254135 -1.1677669 0.81908345 1.0221632 2.1321034 1.3485073 -1.1421443
0.067679614 1.1814566 1.6220483 1.3566785 -0.4457191 0.6388547 0.87768424 -0.33775958
-0.94469476 -0.092983395 -0.16331497 0.20236677 0.36488768 -0.74840474 1.0106192 -0.32679927
0.8766788 0.48535764 -2.1984012 -0.0960766 0.8313816 -1.1798555 3.3832417 -0.1547253
0.5226584 -1.1754544 -0.061260246 -0.521643 1.5949527 1.5226196 -0.0639558 2.245781
0.31421816 0.8761766 0.81888163 -1.8346169 -0.25065565 -0.021701105 0.56116 0.07584245
-0.70830184 -0.2600198 -0.8886068 0.46982297 -1.5296001 0.692567 -0.7528323 -1.0184562
0.6634671 -0.14360099 -0.72019017 -0.68248284 0.1935356 -1.1342674 -0.18256277 0.7840998
-0.92663825 -1.860688 -0.08236973 1.1976131 0.36924213 -0.8673567 -0.85039896 1.9424626
0.17708394 0.0063140397 -0.035370484 0.68125105 -0.7132332 -0.5290037 -0.89043593 -0.7557684
-2.1050003 -1.1990591 -0.34345633 0.53108305 -1.8083136 -1.8453573 -0.111386344 -0.0066062235
0.83174986 -3.3514667 -0.033715278 -0.9673386 -1.4042884 1.5759015 -2.047731 0.82187474
0.59238046 0.5219832 -0.5996739 1.2165866 -1.6573812 1.3643659 0.867122 1.0550481
1.7157533 -1.2416219 -0.90484965 0.23415591 -2.250504 -1.9023919 0.047177732 -0.45011067
1.3776472 -0.17758882 1.2740028 0.82935 3.431921 -1.3713671 0.71131015 -0.6338178
1.5103891 -0.21754515 0.46155596 0.2146428 -0.1016592 -0.60137266 -0.3289195 -2.4138215
0.7093717 0.43593514 -1.1602435 3.5612845 0.14048932 -0.41146633 0.8336045 1.5844085
-1.4701215 -0.19546515 -0.9019566 0.4070166 1.6717013 0.1739237 -0.51903105 0.6077675
1.5725572 0.73241854 -0.561063 -0.028815735 -0.12344675 -0.8657763 0.33650893 2.0865147
0.08794964 -1.20975 -1.3922564 0.6037781 -0.485592 -2.0330482 3.048492 1.6165578
0.5354494 -0.2906328 -0.56822723 0.16680136 -0.85575306 -2.1911721 -1.1941758 -0.19956695
0.86096275 -0.17823501 0.2501332 -1.5353047 0.97460973 1.8275243 -0.24858521 -0.6378552
-0.53829646 -0.15900159 -0.29646942 2.4988887 1.6183969 -0.10230884 1.0685939 2.4121754
-1.2499219 0.9043435 0.15397024 -0.10699749 0.29018536 0.35221905 -0.6702487 0.46692005
0.57838124 -0.76943266 0.18211949 -1.0310812 -0.88667005 -0.8032572 0.32108593 0.23094432
1.01797 -1.5409079 1.5814635 -0.35174122 -1.152924 -0.2002801 0.94629675

tabnet.initial_bn.weight f4 [31]
00000000: 0000 803f 0000 803f 0000 803f 0000 803f
00000010: 0000 803f 0000 803f 0000 803f 0000 803f
00000020: 0000 803f 0000 803f 0000 803f 0000 803f
00000030: 0000 803f 0000 803f 0000 803f 0000 803f
00000040: 0000 803f 0000 803f 0000 803f 0000 803f
00000050: 0000 803f 0000 803f 0000 803f 0000 803f
00000060: 0000 803f 0000 803f 0000 803f 0000 803f
00000070: 0000 803f 0000 803f 0000 803f
1.0 1.0 1.0 1.0 1.0 1.0 1.0 1.0
1.0 1.0 1.0 1.0 1.0 1.0 1.0 1.0
1.0 1.0 1.0 1.0 1.0 1.0 1.0 1.0
1.0 1.0 1.0 1.0 1.0 1.0 1.0

tabnet.initial_bn.bias f4 [31]
00000000: 0000 0000 0000 0000 0000 0000 0000 0000
00000010: 0000 0000 0000 0000 0000 0000 0000 0000
00000020: 0000 0000 0000 0000 0000 0000 0000 0000
00000030: 0000 0000 0000 0000 0000 0000 0000 0000
00000040: 0000 0000 0000 0000 0000 0000 0000 0000
00000050: 0000 0000 0000 0000 0000 0000 0000 0000
00000060: 0000 0000 0000 0000 0000 0000 0000 0000
00000070: 0000 0000 0000 0000 0000 0000
0.0 0.0 0.0 0.0 0.0 0.0 0.0 0.0
0.0 0.0 0.0 0.0 0.0 0.0 0.0 0.0
0.0 0.0 0.0 0.0 0.0 0.0 0.0 0.0
0.0 0.0 0.0 0.0 0.0 0.0 0.0

tabnet.initial_bn.running_mean f4 [31]
00000000: 0000 0000 0000 0000 0000 0000 0000 0000
00000010: 0000 0000 0000 0000 0000 0000 0000 0000
00000020: 0000 0000 0000 0000 0000 0000 0000 0000
00000030: 0000 0000 0000 0000 0000 0000 0000 0000
00000040: 0000 0000 0000 0000 0000 0000 0000 0000
00000050: 0000 0000 0000 0000 0000 0000 0000 0000
00000060: 0000 0000 0000 0000 0000 0000 0000 0000
00000070: 0000 0000 0000 0000 0000 0000
0.0 0.0 0.0 0.0 0.0 0.0 0.0 0.0
0.0 0.0 0.0 0.0 0.0 0.0 0.0 0.0
0.0 0.0 0.0 0.0 0.0 0.0 0.0 0.0
0.0 0.0 0.0 0.0 0.0 0.0 0.0

tabnet.initial_bn.running_var f4 [31]
00000000: 0000 803f 0000 803f 0000 803f 0000 803f
00000010: 0000 803f 0000 803f 0000 803f 0000 803f
00000020: 0000 803f 0000 803f 0000 803f 0000 803f
00000030: 0000 803f 0000 803f 0000 803f 0000 803f
00000040: 0000 803f 0000 803f 0000 803f 0000 803f
00000050: 0000 803f 0000 803f 0000 803f 0000 803f
00000060: 0000 803f 0000 803f 0000 803f 0000 803f
00000070: 0000 803f 0000 803f 0000 803f
1.0 1.0 1.0 1.0 1.0 1.0 1.0 1.0
1.0 1.0 1.0 1.0 1.0 1.0 1.0 1.0
1.0 1.0 1.0 1.0 1.0 1.0 1.0 1.0
1.0 1.0 1.0 1.0 1.0 1.0 1.0

tabnet.encoder.initial_bn.weight f4 [31]
00000000: 6218 583f daf3 ec3e 2b03 c03d 9d53 743f
00000010: 61a3 a83f 3add e73e 0047 4a3f 8108 7e3f
00000020: e914 fd3e 0036 473f 54ec 703f 2882 bd3f
00000030: 2cde 903f 2d69 a73f 2f38 2d3f 4948 3a3f
00000040: 0658 b73f a924 7a3f f7be e53f 3431 783f
00000050: 56b4 193f 5903 543f c1d1 d03f 9c33 263f
00000060: b0f7 ad3f 4746 0e3f 1d33 7c3f 5b18 af3f
00000070: 213e 8c3f 6dc0 d33e f9fa d33e
0.84412205 0.46279794 0.09375604 0.95440084 1.3174859 0.4528597 0.7901459 0.99231726
0.49430016 0.7781677 0.9411061 1.4805346 1.1317801 1.3078972 0.67663854 0.7276655
1.4323738 0.9771219 1.7948903 0.9695008 0.60040796 0.8281761 1.6314012 0.649225
1.3591213 0.55575985 0.9851549 1.3679308 1.095646 0.41357747 0.41402414

tabnet.encoder.initial_bn.bias f4 [31]
00000000: 5470 90bf 0ee2 60bd 5e8e 26bf ce9c 81be
00000010: ad5d 513f 52af 66bf 4de3 45bb b9d6 393e
00000020: 2887 62bf 7a98 283f f133 b8bf 10da bfbd
00000030: 98d5 133e ae76 123c 53d1 6a3d e24b 13bf
00000040: 2e36 86bf ab28 c33e 9e32 a83e 26eb ed3e
00000050: b5ce da3e 4e0a 633e 08c0 18be ede9 f5be
00000060: 038b 383f b44f 85bf b81c 9dbe 4f33 4fbf
00000070: b182 5f3c e695 663f ed47 98bd
-1.128428 -0.054903083 -0.65060985 -0.25314945 0.8178356 -0.9011127 -0.0030195296 0.18148316
-0.8848748 0.6585766 -1.4390851 -0.09367764 0.14436948 0.008939428 0.057328533 -0.57537663
-1.0485284 0.38116965 0.32851118 0.46468467 0.4273583 0.221719 -0.14917004 -0.48030034
0.72087115 -1.0414948 -0.30685973 -0.80937666 0.013641999 0.90072477 -0.07435594

tabnet.encoder.initial_bn.running_mean f4 [31]
00000000: 1370 c242 6361 f944 735b 0a41 2cab d73e
00000010: c9f5 4a3e 504f 903e 9522 93bc 3949 213f
00000020: 67be fdbd 605e b43d a7d4 14bf 120b 6fbe
00000030: af38 2dbf 15f6 b33d 4ff8 d43d 66e6 403e
00000040: 1db2 bdbe 2c5a 4ebf bbdb 8d3e e83d 103e
00000050: 5893 db3d 76c5 97be 8c8f febe ee1f 02be
00000060: e5f2 ccbd 4e12 223f 804a b33e 93cc 893e
00000070: a8b1 143f 084d 80bc a1cc 043e
97.218895 1995.0433 8.647326 0.4212278 0.19820322 0.2818551 -0.017960826 0.63002354
-0.12389832 0.08807063 -0.5813698 -0.23344067 -0.6766462 0.08787171 0.103989236 0.1883789
-0.37049952 -0.8060634 0.27706704 0.14086115 0.10721463 -0.29642838 -0.49718893 -0.12707493
-0.10007266 0.6330918 0.35017776 0.2691389 0.5808358 -0.015661731 0.12968685

tabnet.encoder.initial_bn.running_var f4 [31]
00000000: e892 1044 9b62 3943 3aca 0842 4a52 663f
00000010: 0b5f 5e3f 6eb7 703f 727b 9a3f 3c67 cf3f
00000020: a2b8 8f3f f65c 543f 62e8 c23f 5f65 3e3f
00000030: 2eba ab3f f7a1 a73f b127 533f 7efb 223f
00000040: 1f22 1340 ef41 ab3f b47d 6b3f f538 1040
00000050: 5f0e e13e 3a46 b13f c9d2 003f 08ed 9e3e
00000060: 6c58 dd3e 1127 453f 3ca1 923f 6424 583f
00000070: e8af 0240 b514 b83e a900 943f
578.2954 185.38518 34.197487 0.89969313 0.86863774 0.9402989 1.2068923 1.620338
1.122822 0.8295435 1.5227168 0.7437343 1.3416193 1.3096303 0.8248244 0.63664997
2.2989576 1.3379496 0.9198868 2.2534764 0.43956277 1.3849556 0.5032163 0.31040215
0.43231523 0.77012736 1.1455455 0.8443053 2.0419865 0.35953298 1.1562701

tabnet.encoder.initial_splitter.shared.shared_layers.0.weight f4 [32, 31]
00000000: f5f9 023f aa7d 99bd 0c2f 0ebf 78e0 c9be
00000010: 5bc8 91bf f58c 3c3f 3c86 eabe 27bb 8ebe
00000020: 574c 6abe bc34 563f e107 09bf 3b5c 6ebf
00000030: ea0d b03d b654 483f 3610 5f3f 15e8 99be
00000040: 899e 0b3f 0717 673f ed46 bebf 81b5 bcbe
00000050: 6594 f13d 5250 8a3d fac6 1cbf 58d6 9e3d
00000060: 12cd e1be 8228 9f3e 899e e03e a449 ab3f
00000070: efd4 cd3d 8fdd 3b3e f2fa 053f 5d8f ff3e
00000080: 8eb7 fe3e 9203 e63c 828f 983e 728d 303f
00000090: cee8 c23e 8c48 0c3e eba8 0b40 7c54 53bf
000000a0: 2c6d a13f 18fe 53bc 56d6 37bf dd44 373f
000000b0: 18c0 0fbf 88e7 573f 558f 76be 7ae4 e5bc
000000c0: 32a5 88bf 1c0b 863f 8d99 fa3e 469c 533e
000000d0: a4de d83e 53c3 7dbf 6ddb 5f3e 2c93 41be
000000e0: 4414 c5bf c025 c1be 5853 6a3d 9783 6f3f
000000f0: 3aaf b63f d7be 85be 0823 0a3f 3fdb 26bf
00000100: 2329 abbb c5c7 5d3e 5b3c dcbf 2d8f 803d
00000110: 75eb 23bf 13ce 133f d8f8 043f b913 81bf
00000120: cb28 6f3f 7799 e73e ef5b 0d3f 5427 62be
00000130: 0eea e2bd 2aa7 3bbf 77ac 9f3e 5535 453f
00000140: 1028 a1bf 76ee 9f3e e551 6c3d a11c 093f
00000150: c33d 1340 812e 86be 48b5 883f eada 56bf
00000160: b400 89bf cf61 b0be 2d16 bfbf d390 13be
00000170: 6146 6bbe 6848 87bf 4a44 3f3f 7830 dcbe
00000180: 5440 c2bd 4352 61bf d057 ed3e 72ed f9be
00000190: 38bd 233e 4106 58be 7939 7a3e 7c06 7b3f
000001a0: 76f7 93be ab40 c63f 5dfe 583f ac1b 653f
000001b0: 7dc7 013f 724f 983e 4a0a 923e 5588 8d3f
000001c0: 55f2 893f 1cc8 4c3f 7979 8e3e 0aff f63e
000001d0: c7b2 c7be 2307 7fbe 4428 1ebe b60d 23bf
000001e0: 3c0c eb3e b1a6 2d3d ac43 153c 11e4 f9be
000001f0: 9ffb d1bf 525d 5cbf 6c65 1cbf 4963 193f
00000200: 4001 333f d42d 98be 1198 4dbf 4289 083e
00000210: ddc0 af3e 9f53 69bf b20c 1abe c9e2 6c3f
00000220: cded d43e f8ec 03bf 6cae 0cbf 1502 163b
00000230: b99e a43f cdfa 983f f8c0 d5bf 7bdc 8dbd
00000240: e7e4 023f f0dd 18bf 28f7 8b3f 18dd 1cbe
00000250: 17d5 9dbd 9922 bf3e 46bb e5be 0d9c e53d
00000260: 8c07 4f3f 6305 013f a058 f7be 53cb c03d
00000270: 0db1 a4be f7a9 02be 5f8f 6c3f 6fcd 193d
00000280: b9e2 a63e 9dca 093f 1b66 44bf a4e1 9b3f
00000290: 0465 d9bd bbdc 923e a5ca c0bf e567 8c3e
000002a0: 829f d83e daa8 913d d1a7 ea3f 8292 78bf
000002b0: 13d1 003d a23a f83e 791c 863f 5fbf dc3e
000002c0: 7544 18bf 834e bd3d 8469 1ebf f3e5 323e
000002d0: 589a 903c 5c32 9fbf a99c b2bf ff46 1bbf
000002e0: 90d6 7ebf 334f 63bf 2eb0 313f 42ee a33e
000002f0: 0238 11bf d2fd 72bc 396b e93f cdd8 e1be
00000300: 9e5f 983e d2c9 d83e bdc4 ab3e dd05 e1bd
00000310: 5e17 5ebf 53c3 7bbe 4726 00c0 47a2 a43f
00000320: b4e8 46bf c417 6a3e fafa c43e ae48 803f
00000330: 98c4 f23f 4c27 53be 76b2 4fbf 958f 953e
00000340: a759 20bf 996e 143f 9144 553e 643d e2be
00000350: 81a7 163e 83a9 4f3f e8c3 17bf 74f0 813f
00000360: 6380 063f 68a6 a1be 0926 3b3f 7bcf 113f
00000370: a4f8 873e 4a82 89bd a03a d6be cead 6b3e
00000380: a6e1 1abf 996b e2be 0cbc f33e d367 963f
00000390: efde ac3e de08 ae3e 0d6f 1dc0 b368 243f
000003a0: 972a 32bf 53b1 1bbf 82b1 dbbe a0fd 9ebc
000003b0: 4ebe da3e 4de2 32be 81e5 6a3f b8d9 873f
000003c0: ebfe eebe 2383 b83e 48a2 de3e 611a 7bbe
000003d0: f27e 203f a68d 44bf ddb8 633f 2851 223f
000003e0: 5bae 89bf 916e 9bbf e3c0 f8be 0330 97bf
000003f0: 97dc 443f fda1 47bf 2aa9 963e 40e8 b4b9
0.51162654 -0.07494672 -0.5554054 -0.3942907 -1.1389269 0.73652583 -0.45805538 -0.2787716
-0.22880684 0.83674216 -0.5352765 -0.9310948 0.08596404 0.7825426 0.8713411 -0.30059877
0.5453878 0.9026951 -1.4865395 -0.36857226 0.11795882 0.06753601 -0.61241114 0.077557266
-0.4410177 0.31085593 0.43870953 1.3381848 0.100503795 0.18346237 0.5233604 0.49914065
0.49749416 0.028077874 0.29796988 0.6896583 0.3806824 0.1369955 2.182185 -0.8255079
1.2611442 -0.012938999 -0.71811426 0.7158945 -0.56152487 0.84337664 -0.24078114 -0.028063048
-1.0675414 1.047214 0.48945275 0.20665082 0.4235736 -0.99126166 0.21861048 -0.18903798
-1.539681 -0.37724113 0.05720839 0.93560165 1.4272225 -0.26122162 0.53959703 -0.65178293
-0.0052234097 0.21658237 -1.7205919 0.062773086 -0.64031154 0.5773632 0.51942205 -1.0084144
0.9342162 0.45234272 0.55218405 -0.22085315 -0.11079799 -0.7330195 0.31186268 0.77034503
-1.2590351 0.3123662 0.05769529 0.5355931 2.3006446 -0.26207355 1.0680323 -0.83927786
-1.070334 -0.34449622 -1.4928643 -0.14410715 -0.22976066 -1.0568972 0.74713576 -0.4300573
-0.09484926 -0.88016146 0.46356058 -0.4881397 0.1599015 -0.21096136 0.24435987 0.9805677
-0.28899735 1.5488485 0.8476313 0.8949535 0.5069502 0.29748112 0.28523475 1.105723
1.0777079 0.7999284 0.2782705 0.48241454 -0.39003584 -0.24905066 -0.15445048 -0.63692796
0.45907772 0.042395297 0.0091103725 -0.48806813 -1.6404914 -0.86079895 -0.6109226 0.5991712
0.6992378 -0.29722464 -0.8031016 0.1333361 0.3432683 -0.9114322 -0.15043905 0.92533547
0.41587678 -0.5153346 -0.54953647 0.0022889425 1.2860938 1.1951538 -1.6699514 -0.06926819
0.5113053 -0.5971365 1.0934801 -0.15318716 -0.07706659 0.37331083 -0.4486944 0.11211405
0.8087089 0.50398844 -0.48309803 0.09413781 -0.3216633 -0.12760149 0.92406267 0.037549432
0.3259485 0.5382479 -0.767183 1.2178235 -0.1061497 0.2868403 -1.5061842 0.27423015
0.42309195 0.07112284 1.8332464 -0.97098553 0.03144939 0.48482233 1.0477439 0.43114755
-0.5947946 0.092434905 -0.61879754 0.17470531 0.017651722 -1.2437243 -1.3954059 -0.60655206
-0.99546146 -0.88792723 0.69409454 0.32017714 -0.56726086 -0.014831023 1.8235847 -0.44110718
0.2976045 0.42341477 0.33548537 -0.109874465 -0.86754405 -0.24586229 -2.0023363 1.2862023
-0.77698827 0.22860628 0.3847273 1.002218 1.8966246 -0.2062046 -0.81131685 0.29211107
-0.626368 0.5798126 0.20826937 -0.44187462 0.14712335 0.8111803 -0.59283304 1.0151505
0.5253965 -0.3157227 0.7310491 0.56957215 0.26556885 -0.06714304 -0.41841602 0.2301552
-0.6050056 -0.44222715 0.47604406 1.1750435 0.33763835 0.3399114 -2.459903 0.6422226
-0.69596237 -0.6081745 -0.42908865 -0.019408047 0.42723316 -0.1746914 0.91756445 1.0613317
-0.46678862 0.3603755 0.43483186 -0.24521782 0.62693703 -0.7677864 0.88953954 0.63405085
-1.0756334 -1.2143117 -0.4858466 -1.1811527 0.76899093 -0.7798155 0.29425937 -0.00034505315

tabnet.encoder.initial_splitter.shared.shared_layers.1.weight f4 [32, 16]
00000000: 0f7b 2a3f 3539 85bf a94f a03e e00e 853f
00000010: dee3 8d3f 637a 43bf 2d53 15bf 4ceb 853e
00000020: 147e debf 97cb 12be 98a1 0a3f 1fc9 d33e
00000030: 685d 14bf 8703 cd3d d301 f43e 42f8 9a3e
00000040: 210c 15bf 5549 9fbe 1015 79bf 0836 9d3e
00000050: 6cbb 24bf 1a52 1c3f 0538 a13c 95cc 8abd
00000060: 2733 203f 50e1 683f 7a05 a93f 912e 1a3e
00000070: 0f92 0ebf 8ffc 9b3f 7093 86bf bbe1 42bf
00000080: 4fe9 d3bf bb77 61bf c6c9 dabf 213e 29be
00000090: d5e6 babe 4f14 45bd 8e32 b5be 2270 a53f
000000a0: 46df 8ebe 268a 8d3d b11f ed3e e7a1 913f
000000b0: c397 82be 6caf 4e3f 278c a8be a5e7 ba3e
000000c0: b40a af3f 6ca6 0cbf 26fb e73e 1ecb 2ebf
000000d0: 3457 c1be 20be 28bf a719 ca3e 6411 173e
000000e0: 2f74 66bf ef43 2ebe 5c89 8f3e 4f16 973e
000000f0: c3a0 003f 1ab9 fd3d 28cf 62bf 8561 743f
00000100: b6b5 933f 77e3 0040 f1a8 89bf 44e3 753f
00000110: f4ce 64bd 14f7 44bf 5c31 813f 8870 4e3d
00000120: 8e7f a5be 28e2 92bf 4947 f33e 2f25 d6be
00000130: 05ae e7be 9d18 9dbe 2c12 713d a5a1 cf3c
00000140: 5caf 13be 540c 203f a298 63bf 6d70 6cbf
00000150: 7742 43bf 2086 9cbe 512e ce3e 69db f4be
00000160: b7ff 82bc efc4 bebe d64d 1ec0 50c0 3cbe
00000170: feb5 1d3e 80a3 c43f ce68 6bbe 0c1e ddbd
00000180: 09c8 acbe ede1 d93f e8a6 8d3f 1ab6 213f
00000190: a8a6 283e 648b 563f 2b13 d33e c19a 44bf
000001a0: 4f87 143f 5a30 663f 9b6f 423d 9668 e9be
000001b0: 3300 babe bdec 97bf 4a0b b43e c6e8 e8bf
000001c0: 8ecd c33f f751 8fbc ea2d c9bc 4dd7 4ebe
000001d0: 222c 543e 9f0d 9bbf 98ea 193f d41a 90bf
000001e0: 0b61 213f 920b 55bf df64 a43d 44c0 76bf
000001f0: 71f7 e5bd b4c8 58be 11df 8e3f b0e3 a63f
00000200: 61b1 633f fe14 363f 9937 673f aaca 8c3e
00000210: e28e 9fbf 106c f83e 5bb5 883d 09e0 253f
00000220: 83eb c53c 1751 2a3d 1f79 1ebf 2ab0 7abf
00000230: c42c dfbf 26b2 19bd db10 58be a7ba 4d3f
00000240: 68e2 603f 843c 5dbe 01a5 ab3d cfdf e73d
00000250: 03c3 1a3f edcb 183f e850 99bf 258d 653f
00000260: 56b7 a6bf 969c 0fc0 b147 173e a31c 49bc
00000270: a37b 543f 5c5b f4be 2d2b 9cbf 0a54 ef3e
00000280: 6017 053f 6f82 393f e284 c3bf a3d6 39bf
00000290: 8fbf a5bf f940 77bf 66fa c13f b3dd 003f
000002a0: 3b56 283e 4c54 52bf 4df7 8a3d 3a66 273f
000002b0: 252d 353f 2c5c 12be 068e 4f3e b144 853f
000002c0: 3878 213f 0616 543f eaf7 c43e 29d7 a2bd
000002d0: a7f1 d6be 9217 f4be 768e 1fbf 9e15 98bf
000002e0: d10f 17bf 13c8 7ebe 95c7 22be ff80 38bc
000002f0: a488 db3d 5b08 bdbf c4ed b03f acf1 1d3f
00000300: c622 aa3f 0ff2 8e3e ef41 af3e f67b 5c3f
00000310: 1fdc c8bf ca82 423f c9b2 573f 7a17 e9be
00000320: 19e2 a03e b8ab a1bf 1dc4 68bd 9110 4b3f
00000330: db11 cbbe d44b ad3f 6396 dfbe 4d3f 783f
00000340: b589 bbbe 9553 31bf f5ba 773f 7e6c 2ebf
00000350: 537f b73d 3ae4 6c3f ebd6 e03e 9b91 5e3e
00000360: 8571 4fbf f755 af3f 0e3f e43e 6389 a73c
00000370: 907f 2a3f e511 0abe f72f ccbe 4d5d 63bf
00000380: dc04 7f3f 38dc b1bf 4cd5 2e3f 8f66 d63f
00000390: 12a3 493f 4f01 69be fe7e bd3f 503c 0c3f
000003a0: 0704 913f 2002 ee3e d63b a63e 467d 273f
000003b0: 1c54 6cbe cea3 423f b6dd a3bf c35a 543f
000003c0: 80c3 793e 9b7c 8bbe fff0 49bf 4bfd b5bf
000003d0: 989b f53e 73a6 933d 3e4d 3ebf d534 4ebf
000003e0: 9278 6e3f 9260 f73e c857 c23e d0e8 7f3f
000003f0: ddd7 483c 45eb c7bf 3964 4b3d 9ed1 853f
0.6659402 -1.0408083 0.31310776 1.0395164 1.1085165 -0.7635862 -0.5833004 0.2615608
-1.7382226 -0.14335476 0.5415282 0.4136438 -0.57955027 0.100104384 0.47657642 0.3026753
-0.5822163 -0.31110635 -0.97297764 0.30705285 -0.64348483 0.6106278 0.019680033 -0.06777302
0.6257805 0.909688 1.3204796 0.15056826 -0.5569162 1.218645 -1.0513744 -0.7612569
-1.6555575 -0.8807332 -1.7092826 -0.16527607 -0.36504236 -0.04811507 -0.35390133 1.2924845
-0.2790472 0.06911115 0.4631324 1.1377534 -0.2550641 0.8073642 -0.32919428 0.36504856
1.3675141 -0.5494144 0.453088 -0.6827868 -0.37761843 -0.6591511 0.39472696 0.14752728
-0.9002103 -0.17018102 0.28034484 0.29509208 0.502453 0.12388821 -0.88597345 0.95461303
1.1539829 2.0138834 -1.0754682 0.96049905 -0.05586143 -0.7693951 1.0093188 0.050400287
-0.3232388 -1.1475267 0.47515324 -0.41825244 -0.45249954 -0.3068284 0.05885522 0.025345633
-0.14422363 0.6251881 -0.88904774 -0.9235905 -0.7627329 -0.3057108 0.40269712 -0.47823647
-0.015991075 -0.37259623 -2.4735007 -0.18432736 0.15401456 1.5362396 -0.22989199 -0.107967466
-0.33746365 1.7022072 1.1066561 0.6316849 0.16469824 0.83806443 0.41225561 -0.76798636
0.58018965 0.8991753 0.047469717 -0.45587605 -0.36328277 -1.1869122 0.35164863 -1.8196037
1.5297105 -0.017495139 -0.024558026 -0.20199318 0.2071996 -1.2113532 0.60123587 -1.1258187
0.630387 -0.8322078 0.08027052 -0.96387124 -0.11228836 -0.21170312 1.1161824 1.3038235
0.88942534 0.7112578 0.9031921 0.2749837 -1.2465479 0.48519945 0.06675216 0.64794976
0.024160152 0.04158124 -0.61903566 -0.97925055 -1.7435536 -0.03752341 -0.2110018 0.80362934
0.8784547 -0.21605116 0.08381081 0.11321985 0.60453814 0.59686166 -1.1977816 0.89668494
-1.30247 -2.2439322 0.14773442 -0.012274894 0.83001155 -0.47725952 -1.2200676 0.46743804
0.5198879 0.7246465 -1.5274928 -0.72593135 -1.2949084 -0.96583515 1.515454 0.50338286
0.16439144 -0.82159877 0.0678545 0.6539036 0.7077201 -0.14292973 0.20269021 1.0411588
0.63074064 0.82846105 0.38470393 -0.07951195 -0.4198124 -0.47674233 -0.62326753 -1.1881597
-0.5900851 -0.2488101 -0.15896447 -0.011261224 0.107194215 -1.4768175 1.382256 0.61696887
1.3291862 0.2791905 0.3422999 0.8612665 -1.5692176 0.7598082 0.8425718 -0.45525724
0.314225 -1.2630529 -0.056827653 0.79322153 -0.3966206 1.3538766 -0.43669423 0.9697159
-0.366285 -0.6926816 0.9676965 -0.68134296 0.08959832 0.92535746 0.4391397 0.21735232
-0.8103259 1.3698109 0.44579357 0.020451253 0.66600895 -0.13483389 -0.39880344 -0.8881424
0.9961679 -1.389533 0.68294215 1.6750048 0.7876445 -0.22754405 1.480438 0.5477953
1.1329354 0.46485996 0.32467526 0.6542553 -0.2307896 0.76031196 -1.2802036 0.8295099
0.24390984 -0.27243504 -0.78883356 -1.4217924 0.4797027 0.07209482 -0.7433661 -0.80549365
0.93152726 0.48315865 0.37957597 0.9996462 0.012258497 -1.5618674 0.049656127 1.0454595

tabnet.encoder.initial_splitter.shared.glu_layers.0.fc.weight f4 [32, 31]
00000000: f5f9 023f aa7d 99bd 0c2f 0ebf 78e0 c9be
00000010: 5bc8 91bf f58c 3c3f 3c86 eabe 27bb 8ebe
00000020: 574c 6abe bc34 563f e107 09bf 3b5c 6ebf
00000030: ea0d b03d b654 483f 3610 5f3f 15e8 99be
00000040: 899e 0b3f 0717 673f ed46 bebf 81b5 bcbe
00000050: 6594 f13d 5250 8a3d fac6 1cbf 58d6 9e3d
00000060: 12cd e1be 8228 9f3e 899e e03e a449 ab3f
00000070: efd4 cd3d 8fdd 3b3e f2fa 053f 5d8f ff3e
00000080: 8eb7 fe3e 9203 e63c 828f 983e 728d 303f
00000090: cee8 c23e 8c48 0c3e eba8 0b40 7c54 53bf
000000a0: 2c6d a13f 18fe 53bc 56d6 37bf dd44 373f
000000b0: 18c0 0fbf 88e7 573f 558f 76be 7ae4 e5bc
000000c0: 32a5 88bf 1c0b 863f 8d99 fa3e 469c 533e
000000d0: a4de d83e 53c3 7dbf 6ddb 5f3e 2c93 41be
000000e0: 4414 c5bf c025 c1be 5853 6a3d 9783 6f3f
000000f0: 3aaf b63f d7be 85be 0823 0a3f 3fdb 26bf
00000100: 2329 abbb c5c7 5d3e 5b3c dcbf 2d8f 803d
00000110: 75eb 23bf 13ce 133f d8f8 043f b913 81bf
00000120: cb28 6f3f 7799 e73e ef5b 0d3f 5427 62be
00000130: 0eea e2bd 2aa7 3bbf 77ac 9f3e 5535 453f
00000140: 1028 a1bf 76ee 9f3e e551 6c3d a11c 093f
00000150: c33d 1340 812e 86be 48b5 883f eada 56bf
00000160: b400 89bf cf61 b0be 2d16 bfbf d390 13be
00000170: 6146 6bbe 6848 87bf 4a44 3f3f 7830 dcbe
00000180: 5440 c2bd 4352 61bf d057 ed3e 72ed f9be
00000190: 38bd 233e 4106 58be 7939 7a3e 7c06 7b3f
000001a0: 76f7 93be ab40 c63f 5dfe 583f ac1b 653f
000001b0: 7dc7 013f 724f 983e 4a0a 923e 5588 8d3f
000001c0: 55f2 893f 1cc8 4c3f 7979 8e3e 0aff f63e
000001d0: c7b2 c7be 2307 7fbe 4428 1ebe b60d 23bf
000001e0: 3c0c eb3e b1a6 2d3d ac43 153c 11e4 f9be
000001f0: 9ffb d1bf 525d 5cbf 6c65 1cbf 4963 193f
00000200: 4001 333f d42d 98be 1198 4dbf 4289 083e
00000210: ddc0 af3e 9f53 69bf b20c 1abe c9e2 6c3f
00000220: cded d43e f8ec 03bf 6cae 0cbf 1502 163b
00000230: b99e a43f cdfa 983f f8c0 d5bf 7bdc 8dbd
00000240: e7e4 023f f0dd 18bf 28f7 8b3f 18dd 1cbe
00000250: 17d5 9dbd 9922 bf3e 46bb e5be 0d9c e53d
00000260: 8c07 4f3f 6305 013f a058 f7be 53cb c03d
00000270: 0db1 a4be f7a9 02be 5f8f 6c3f 6fcd 193d
00000280: b9e2 a63e 9dca 093f 1b66 44bf a4e1 9b3f
00000290: 0465 d9bd bbdc 923e a5ca c0bf e567 8c3e
000002a0: 829f d83e daa8 913d d1a7 ea3f 8292 78bf
000002b0: 13d1 003d a23a f83e 791c 863f 5fbf dc3e
000002c0: 7544 18bf 834e bd3d 8469 1ebf f3e5 323e
000002d0: 589a 903c 5c32 9fbf a99c b2bf ff46 1bbf
000002e0: 90d6 7ebf 334f 63bf 2eb0 313f 42ee a33e
000002f0: 0238 11bf d2fd 72bc 396b e93f cdd8 e1be
00000300: 9e5f 983e d2c9 d83e bdc4 ab3e dd05 e1bd
00000310: 5e17 5ebf 53c3 7bbe 4726 00c0 47a2 a43f
00000320: b4e8 46bf c417 6a3e fafa c43e ae48 803f
00000330: 98c4 f23f 4c27 53be 76b2 4fbf 958f 953e
00000340: a759 20bf 996e 143f 9144 553e 643d e2be
00000350: 81a7 163e 83a9 4f3f e8c3 17bf 74f0 813f
00000360: 6380 063f 68a6 a1be 0926 3b3f 7bcf 113f
00000370: a4f8 873e 4a82 89bd a03a d6be cead 6b3e
00000380: a6e1 1abf 996b e2be 0cbc f33e d367 963f
00000390: efde ac3e de08 ae3e 0d6f 1dc0 b368 243f
000003a0: 972a 32bf 53b1 1bbf 82b1 dbbe a0fd 9ebc
000003b0: 4ebe da3e 4de2 32be 81e5 6a3f b8d9 873f
000003c0: ebfe eebe 2383 b83e 48a2 de3e 611a 7bbe
000003d0: f27e 203f a68d 44bf ddb8 633f 2851 223f
000003e0: 5bae 89bf 916e 9bbf e3c0 f8be 0330 97bf
000003f0: 97dc 443f fda1 47bf 2aa9 963e 40e8 b4b9
0.51162654 -0.07494672 -0.5554054 -0.3942907 -1.1389269 0.73652583 -0.45805538 -0.2787716
-0.22880684 0.83674216 -0.5352765 -0.9310948 0.08596404 0.7825426 0.8713411 -0.30059877
0.5453878 0.9026951 -1.4865395 -0.36857226 0.11795882 0.06753601 -0.61241114 0.077557266
-0.4410177 0.31085593 0.43870953 1.3381848 0.100503795 0.18346237 0.5233604 0.49914065
0.49749416 0.028077874 0.29796988 0.6896583 0.3806824 0.1369955 2.182185 -0.8255079
1.2611442 -0.012938999 -0.71811426 0.7158945 -0.56152487 0.84337664 -0.24078114 -0.028063048
-1.0675414 1.047214 0.48945275 0.20665082 0.4235736 -0.99126166 0.21861048 -0.18903798
-1.539681 -0.37724113 0.05720839 0.93560165 1.4272225 -0.26122162 0.53959703 -0.65178293
-0.0052234097 0.21658237 -1.7205919 0.062773086 -0.64031154 0.5773632 0.51942205 -1.0084144
0.9342162 0.45234272 0.55218405 -0.22085315 -0.11079799 -0.7330195 0.31186268 0.77034503
-1.2590351 0.3123662 0.05769529 0.5355931 2.3006446 -0.26207355 1.0680323 -0.83927786
-1.070334 -0.34449622 -1.4928643 -0.14410715 -0.22976066 -1.0568972 0.74713576 -0.4300573
-0.09484926 -0.88016146 0.46356058 -0.4881397 0.1599015 -0.21096136 0.24435987 0.9805677
-0.28899735 1.5488485 0.8476313 0.8949535 0.5069502 0.29748112 0.28523475 1.105723
1.0777079 0.7999284 0.2782705 0.48241454 -0.39003584 -0.24905066 -0.15445048 -0.63692796
0.45907772 0.042395297 0.0091103725 -0.48806813 -1.6404914 -0.86079895 -0.6109226 0.5991712
0.6992378 -0.29722464 -0.8031016 0.1333361 0.3432683 -0.9114322 -0.15043905 0.92533547
0.41587678 -0.5153346 -0.54953647 0.0022889425 1.2860938 1.1951538 -1.6699514 -0.06926819
0.5113053 -0.5971365 1.0934801 -0.15318716 -0.07706659 0.37331083 -0.4486944 0.11211405
0.8087089 0.50398844 -0.48309803 0.09413781 -0.3216633 -0.12760149 0.92406267 0.037549432
0.3259485 0.5382479 -0.767183 1.2178235 -0.1061497 0.2868403 -1.5061842 0.27423015
0.42309195 0.07112284 1.8332464 -0.97098553 0.03144939 0.48482233 1.0477439 0.43114755
-0.5947946 0.092434905 -0.61879754 0.17470531 0.017651722 -1.2437243 -1.3954059 -0.60655206
-0.99546146 -0.88792723 0.69409454 0.32017714 -0.56726086 -0.014831023 1.8235847 -0.44110718
0.2976045 0.42341477 0.33548537 -0.109874465 -0.86754405 -0.24586229 -2.0023363 1.2862023
-0.77698827 0.22860628 0.3847273 1.002218 1.8966246 -0.2062046 -0.81131685 0.29211107
-0.626368 0.5798126 0.20826937 -0.44187462 0.14712335 0.8111803 -0.59283304 1.0151505
0.5253965 -0.3157227 0.7310491 0.56957215 0.26556885 -0.06714304 -0.41841602 0.2301552
-0.6050056 -0.44222715 0.47604406 1.1750435 0.33763835 0.3399114 -2.459903 0.6422226
-0.69596237 -0.6081745 -0.42908865 -0.019408047 0.42723316 -0.1746914 0.91756445 1.0613317
-0.46678862 0.3603755 0.43483186 -0.24521782 0.62693703 -0.7677864 0.88953954 0.63405085
-1.0756334 -1.2143117 -0.4858466 -1.1811527 0.76899093 -0.7798155 0.29425937 -0.00034505315

tabnet.encoder.initial_splitter.shared.glu_layers.0.bn.bn.weight f4 [32]
00000000: bf6c 693f 21dd ac3f c5c4 ec3f c0b9 8b3f
00000010: 6b2c a73f 410d 7f3f dedf 343f be9c 8f3f
00000020: f1d9 043f 486a 0b3f 8bd9 0a3f 6094 533f
00000030: e015 823e d0ca 8f3f b66a a73f d661 693f
00000040: 7185 a83e b6b3 f23f 0eaa c63f 55b8 5f3f
00000050: ee5a a33f 9f37 c23d 0f24 b03f 1083 9c3f
00000060: 0702 373f 6e40 813f d90c 493f 3f0b 683e
00000070: 78ad 473f 1256 933f 2ef6 a73f 08f5 833f
0.9118156 1.3504983 1.8497549 1.0916061 1.306043 0.996296 0.70654094 1.1219709
0.5189505 0.5445905 0.54238194 0.8264828 0.25407314 1.1233768 1.307944 0.9116491
0.32914308 1.8961093 1.5520647 0.87390643 1.2762125 0.09483265 1.3761004 1.2227497
0.7148747 1.0097787 0.7853523 0.2266054 0.7799907 1.1510642 1.3122003 1.0309153

tabnet.encoder.initial_splitter.shared.glu_layers.0.bn.bn.bias f4 [32]
00000000: a007 30be 0857 be3d 8f54 c2bc dc5c 083f
00000010: 3ca3 87be f522 38bf f37d 4d3f 0f38 543e
00000020: a362 03bf c5e8 ff3d 8de7 dfbe 1d1f 0bbe
00000030: 4e53 6f3d 82c7 61be 10e1 6abe 8354 913d
00000040: dba1 12be 475d d9be d5bf 6cbf ea67 2c3c
00000050: 7b8c 793e 1d88 b33e f754 47bf 9a5e 8c3d
00000060: 9adf a6be 4188 15bf 3031 923d be51 513d
00000070: 3229 3bbf 9349 2fbd efd3 c53e 4a62 b7bc
-0.17190409 0.09293944 -0.023721961 0.5326669 -0.26491725 -0.7192834 0.8027031 0.2072451
-0.5132238 0.12495569 -0.43731347 -0.13586088 0.058429055 -0.22048762 -0.22937417 0.070961975
-0.14319555 -0.42453977 -0.9248021 0.010522822 0.24369995 0.35064784 -0.7786402 0.06853981
-0.3259247 -0.5841103 0.07138288 0.051103346 -0.73109734 -0.042794775 0.38638255 -0.022385735

tabnet.encoder.initial_splitter.shared.glu_layers.0.bn.bn.running_mean f4 [32]
00000000: 0669 1cc0 1727 a540 afa6 11c0 006a a53e
00000010: 2e0a 643f 71a4 86be 8dd1 3440 d73b 093f
00000020: 242e f840 c4a1 8440 b6c3 0fc0 7855 2740
00000030: 73f1 f2c0 9ed4 513f 419b a8c0 7825 89bf
00000040: e03b 9840 d931 99bd e8bb cb3f 6809 27c0
00000050: e37b 0540 ea38 0ec0 fa09 c13e 9412 8bc0
00000060: 0dfe 2b3f d0df fe3e 7135 ca3f 3731 c6be
00000070: 080d c5bf 6229 bbbf 6f90 7ac0 4d2d 1a40
-2.4439101 5.1610217 -2.2757986 0.32307434 0.8907803 -0.26297334 2.82529 0.53606933
7.7556324 4.144747 -2.2463202 2.6145916 -7.591974 0.81965053 -5.268952 -1.071456
4.757309 -0.07480211 1.591672 -2.609949 2.0856864 -2.2222238 0.37702924 -4.346018
0.67184526 0.4978013 1.5797559 -0.38709423 -1.5394602 -1.4622004 -3.9150655 2.409015

tabnet.encoder.initial_splitter.shared.glu_layers.0.bn.bn.running_var f4 [32]
00000000: cdc1 ea41 0d53 f441 8716 b542 494e 8041
00000010: 6912 4942 7060 b941 e9c1 6242 18bf c341
00000020: f298 1542 b96e 3042 7e07 d341 77d7 ef41
00000030: b41c b941 54d8 1142 8697 0342 0350 d741
00000040: 17b7 c741 7929 d341 5203 0f42 6056 da41
00000050: 7784 ba41 7a42 a841 e7e4 4642 72fd f241
00000060: 06e7 ad41 b1c1 3742 0def b641 165e b241
00000070: c902 3241 8755 1a42 d05e 8c41 b1b5 0d42
29.34463 30.540552 90.544 16.038225 50.26798 23.172089 56.689365 24.468307
37.39936 44.108128 26.378658 29.980207 23.139015 36.461258 32.897972 26.914068
24.9644 26.39525 35.753242 27.292175 23.31468 21.03246 49.723537 30.373753
21.737804 45.93915 22.866724 22.29594 11.12568 38.583523 17.546295 35.427433

tabnet.encoder.initial_splitter.shared.glu_layers.1.fc.weight f4 [32, 16]
00000000: 0f7b 2a3f 3539 85bf a94f a03e e00e 853f
00000010: dee3 8d3f 637a 43bf 2d53 15bf 4ceb 853e
00000020: 147e debf 97cb 12be 98a1 0a3f 1fc9 d33e
00000030: 685d 14bf 8703 cd3d d301 f43e 42f8 9a3e
00000040: 210c 15bf 5549 9fbe 1015 79bf 0836 9d3e
00000050: 6cbb 24bf 1a52 1c3f 0538 a13c 95cc 8abd
00000060: 2733 203f 50e1 683f 7a05 a93f 912e 1a3e
00000070: 0f92 0ebf 8ffc 9b3f 7093 86bf bbe1 42bf
00000080: 4fe9 d3bf bb77 61bf c6c9 dabf 213e 29be
00000090: d5e6 babe 4f14 45bd 8e32 b5be 2270 a53f
000000a0: 46df 8ebe 268a 8d3d b11f ed3e e7a1 913f
000000b0: c397 82be 6caf 4e3f 278c a8be a5e7 ba3e
000000c0: b40a af3f 6ca6 0cbf 26fb e73e 1ecb 2ebf
000000d0: 3457 c1be 20be 28bf a719 ca3e 6411 173e
000000e0: 2f74 66bf ef43 2ebe 5c89 8f3e 4f16 973e
000000f0: c3a0 003f 1ab9 fd3d 28cf 62bf 8561 743f
00000100: b6b5 933f 77e3 0040 f1a8 89bf 44e3 753f
00000110: f4ce 64bd 14f7 44bf 5c31 813f 8870 4e3d
00000120: 8e7f a5be 28e2 92bf 4947 f33e 2f25 d6be
00000130: 05ae e7be 9d18 9dbe 2c12 713d a5a1 cf3c
00000140: 5caf 13be 540c 203f a298 63bf 6d70 6cbf
00000150: 7742 43bf 2086 9cbe 512e ce3e 69db f4be
00000160: b7ff 82bc efc4 bebe d64d 1ec0 50c0 3cbe
00000170: feb5 1d3e 80a3 c43f ce68 6bbe 0c1e ddbd
00000180: 09c8 acbe ede1 d93f e8a6 8d3f 1ab6 213f
00000190: a8a6 283e 648b 563f 2b13 d33e c19a 44bf
000001a0: 4f87 143f 5a30 663f 9b6f 423d 9668 e9be
000001b0: 3300 babe bdec 97bf 4a0b b43e c6e8 e8bf
000001c0: 8ecd c33f f751 8fbc ea2d c9bc 4dd7 4ebe
000001d0: 222c 543e 9f0d 9bbf 98ea 193f d41a 90bf
000001e0: 0b61 213f 920b 55bf df64 a43d 44c0 76bf
000001f0: 71f7 e5bd b4c8 58be 11df 8e3f b0e3 a63f
00000200: 61b1 633f fe14 363f 9937 673f aaca 8c3e
00000210: e28e 9fbf 106c f83e 5bb5 883d 09e0 253f
00000220: 83eb c53c 1751 2a3d 1f79 1ebf 2ab0 7abf
00000230: c42c dfbf 26b2 19bd db10 58be a7ba 4d3f
00000240: 68e2 603f 843c 5dbe 01a5 ab3d cfdf e73d
00000250: 03c3 1a3f edcb 183f e850 99bf 258d 653f
00000260: 56b7 a6bf 969c 0fc0 b147 173e a31c 49bc
00000270: a37b 543f 5c5b f4be 2d2b 9cbf 0a54 ef3e
00000280: 6017 053f 6f82 393f e284 c3bf a3d6 39bf
00000290: 8fbf a5bf f940 77bf 66fa c13f b3dd 003f
000002a0: 3b56 283e 4c54 52bf 4df7 8a3d 3a66 273f
000002b0: 252d 353f 2c5c 12be 068e 4f3e b144 853f
000002c0: 3878 213f 0616 543f eaf7 c43e 29d7 a2bd
000002d0: a7f1 d6be 9217 f4be 768e 1fbf 9e15 98bf
000002e0: d10f 17bf 13c8 7ebe 95c7 22be ff80 38bc
000002f0: a488 db3d 5b08 bdbf c4ed b03f acf1 1d3f
00000300: c622 aa3f 0ff2 8e3e ef41 af3e f67b 5c3f
00000310: 1fdc c8bf ca82 423f c9b2 573f 7a17 e9be
00000320: 19e2 a03e b8ab a1bf 1dc4 68bd 9110 4b3f
00000330: db11 cbbe d44b ad3f 6396 dfbe 4d3f 783f
00000340: b589 bbbe 9553 31bf f5ba 773f 7e6c 2ebf
00000350: 537f b73d 3ae4 6c3f ebd6 e03e 9b91 5e3e
00000360: 8571 4fbf f755 af3f 0e3f e43e 6389 a73c
00000370: 907f 2a3f e511 0abe f72f ccbe 4d5d 63bf
00000380: dc04 7f3f 38dc b1bf 4cd5 2e3f 8f66 d63f
00000390: 12a3 493f 4f01 69be fe7e bd3f 503c 0c3f
000003a0: 0704 913f 2002 ee3e d63b a63e 467d 273f
000003b0: 1c54 6cbe cea3 423f b6dd a3bf c35a 543f
000003c0: 80c3 793e 9b7c 8bbe fff0 49bf 4bfd b5bf
000003d0: 989b f53e 73a6 933d 3e4d 3ebf d534 4ebf
000003e0: 9278 6e3f 9260 f73e c857 c23e d0e8 7f3f
000003f0: ddd7 483c 45eb c7bf 3964 4b3d 9ed1 853f
0.6659402 -1.0408083 0.31310776 1.0395164 1.1085165 -0.7635862 -0.5833004 0.2615608
-1.7382226 -0.14335476 0.5415282 0.4136438 -0.57955027 0.100104384 0.47657642 0.3026753
-0.5822163 -0.31110635 -0.97297764 0.30705285 -0.64348483 0.6106278 0.019680033 -0.06777302
0.6257805 0.909688 1.3204796 0.15056826 -0.5569162 1.218645 -1.0513744 -0.7612569
-1.6555575 -0.8807332 -1.7092826 -0.16527607 -0.36504236 -0.04811507 -0.35390133 1.2924845
-0.2790472 0.06911115 0.4631324 1.1377534 -0.2550641 0.8073642 -0.32919428 0.36504856
1.3675141 -0.5494144 0.453088 -0.6827868 -0.37761843 -0.6591511 0.39472696 0.14752728
-0.9002103 -0.17018102 0.28034484 0.29509208 0.502453 0.12388821 -0.88597345 0.95461303
1.1539829 2.0138834 -1.0754682 0.96049905 -0.05586143 -0.7693951 1.0093188 0.050400287
-0.3232388 -1.1475267 0.47515324 -0.41825244 -0.45249954 -0.3068284 0.05885522 0.025345633
-0.14422363 0.6251881 -0.88904774 -0.9235905 -0.7627329 -0.3057108 0.40269712 -0.47823647
-0.015991075 -0.37259623 -2.4735007 -0.18432736 0.15401456 1.5362396 -0.22989199 -0.107967466
-0.33746365 1.7022072 1.1066561 0.6316849 0.16469824 0.83806443 0.41225561 -0.76798636
0.58018965 0.8991753 0.047469717 -0.45587605 -0.36328277 -1.1869122 0.35164863 -1.8196037
1.5297105 -0.017495139 -0.024558026 -0.20199318 0.2071996 -1.2113532 0.60123587 -1.1258187
0.630387 -0.8322078 0.08027052 -0.96387124 -0.11228836 -0.21170312 1.1161824 1.3038235
0.88942534 0.7112578 0.9031921 0.2749837 -1.2465479 0.48519945 0.06675216 0.64794976
0.024160152 0.04158124 -0.61903566 -0.97925055 -1.7435536 -0.03752341 -0.2110018 0.80362934
0.8784547 -0.21605116 0.08381081 0.11321985 0.60453814 0.59686166 -1.1977816 0.89668494
-1.30247 -2.2439322 0.14773442 -0.012274894 0.83001155 -0.47725952 -1.2200676 0.46743804
0.5198879 0.7246465 -1.5274928 -0.72593135 -1.2949084 -0.96583515 1.515454 0.50338286
0.16439144 -0.82159877 0.0678545 0.6539036 0.7077201 -0.14292973 0.20269021 1.0411588
0.63074064 0.82846105 0.38470393 -0.07951195 -0.4198124 -0.47674233 -0.62326753 -1.1881597
-0.5900851 -0.2488101 -0.15896447 -0.011261224 0.107194215 -1.4768175 1.382256 0.61696887
1.3291862 0.2791905 0.3422999 0.8612665 -1.5692176 0.7598082 0.8425718 -0.45525724
0.314225 -1.2630529 -0.056827653 0.79322153 -0.3966206 1.3538766 -0.43669423 0.9697159
-0.366285 -0.6926816 0.9676965 -0.68134296 0.08959832 0.92535746 0.4391397 0.21735232
-0.8103259 1.3698109 0.44579357 0.020451253 0.66600895 -0.13483389 -0.39880344 -0.8881424
0.9961679 -1.389533 0.68294215 1.6750048 0.7876445 -0.22754405 1.480438 0.5477953
1.1329354 0.46485996 0.32467526 0.6542553 -0.2307896 0.76031196 -1.2802036 0.8295099
0.24390984 -0.27243504 -0.78883356 -1.4217924 0.4797027 0.07209482 -0.7433661 -0.80549365
0.93152726 0.48315865 0.37957597 0.9996462 0.012258497 -1.5618674 0.049656127 1.0454595

tabnet.encoder.initial_splitter.shared.glu_layers.1.bn.bn.weight f4 [32]
00000000: 4d02 a33f 3ce3 0b3f 4079 cb3f a652 8d3f
00000010: 7709 053f 9e0e 0740 bce6 873f a265 8e3f
00000020: a69e 8d3f 230e 913f 42e7 f23f e09a aa3f
00000030: e74a a53f f5a5 a23f 5fc3 a63f 3a0e 8f3f
00000040: bb8c bb3f 0162 dd3e 41d9 5c3f 4f75 a03f
00000050: c44a 693f 7e09 1a40 1ab2 363f 4562 7e3f
00000060: 3b4e b43f afec 453f e100 0740 5e5e 993f
00000070: 2a63 c73f 2957 b43d 725f 793f 153b 883f
1.2735077 0.5464361 1.5896378 1.1040847 0.5196757 2.1102672 1.061729 1.1124766
1.1064041 1.1332439 1.8976824 1.3328514 1.2913483 1.2706896 1.3028373 1.1176217
1.4652323 0.43238834 0.86269003 1.25358 0.9112971 2.4068294 0.7136551 0.993687
1.4086374 0.77314276 2.1094286 1.1981924 1.5577137 0.08805687 0.97411263 1.064303

tabnet.encoder.initial_splitter.shared.glu_layers.1.bn.bn.bias f4 [32]
00000000: b4ed 92be d023 38be 3bdd 08bf 2e71 a33d
00000010: 9305 7dbe b294 c93e c89d c7be f0c6 f93d
00000020: b1df d4be 6f05 68bc 38a8 963f 0c7d 52be
00000030: 1ace de3d d91b 1a3d a700 363f c201 25be
00000040: 9153 b1be 7ba3 d1be 802d 433f dd8b 6f3d
00000050: 3a4d e8be bf7e a2be b601 903e 4455 b8bd
00000060: 69dd a43e 639a c03e 8663 c1be f75e 303e
00000070: cfe9 94bd f147 233f bac0 02bd 0635 333e
-0.28696978 -0.17982411 -0.5346257 0.07980572 -0.24709158 0.39371258 -0.38987565 0.121961474
-0.41576913 -0.014161452 1.1770086 -0.20555514 0.108791545 0.037624214 0.71094745 -0.16113952
-0.3463407 -0.40945038 0.762413 0.058482993 -0.4537142 -0.31737325 0.28126305 -0.09000638
0.32200173 0.37617788 -0.37771243 0.17223726 -0.07271158 0.6378165 -0.03192208 0.17500696

tabnet.encoder.initial_splitter.shared.glu_layers.1.bn.bn.running_mean f4 [32]
00000000: 7e28 7f3e d8a5 c5be d484 d93e 4242 efbd
00000010: db72 cb3f 291e fb3e d19b 1d3e f914 19bd
00000020: 48f3 043e 0a82 cabe 4975 9d3f e96b 2b3e
00000030: 8e4e eabe fe2f 1bbf 8a2e 093e a636 4ebf
00000040: 3dba 4ebe 8220 55bf 1792 7bbf 4ec6 6abf
00000050: f4d6 953f aff5 943f bac8 44bf c300 513e
00000060: 7626 d5be 206b 7cbf d9c2 a93f 4d63 01be
00000070: 8059 a1be 2cfa f23e 7dfe 903f 799b a3be
0.2491779 -0.3860309 0.42484152 -0.116825595 1.5894426 0.49046448 0.1539147 -0.037373517
0.1298343 -0.39552337 1.2301418 0.16740383 -0.45763057 -0.60620105 0.1339666 -0.80552137
-0.20188232 -0.8325273 -0.9826979 -0.9170884 1.1706223 1.1637477 -0.76868784 0.20410447
-0.41630906 -0.9860096 1.3262588 -0.12635536 -0.31513596 0.4745649 1.1327664 -0.31954554

tabnet.encoder.initial_splitter.shared.glu_layers.1.bn.bn.running_var f4 [32]
00000000: 041e 0441 df94 c140 7236 8a40 4814 0840
00000010: 9cd4 de40 45a7 e040 1ed8 8e40 6da0 ad40
00000020: bfc4 1d40 e542 8b40 0929 2e41 8cb1 ec40
00000030: 7c9a a040 c45f 0c40 2ae1 0241 c20a a940
00000040: c6c3 ad40 e1bc bf40 737c 8340 5eb4 9540
00000050: d418 1240 d013 8941 f047 3340 090c 7a3f
00000060: 3ff5 9c3f ee1e bb40 8849 0241 23d7 d740
00000070: 3922 7040 3962 8140 280e 7d40 2d84 5740
8.257328 6.0494227 4.319146 2.1262379 6.9634533 7.0204186 4.4638815 5.425833
2.4651334 4.351916 10.885018 7.396673 5.018858 2.193345 8.179972 5.282563
5.430148 5.9918065 4.1089416 4.6782675 2.2827654 17.134674 2.8012657 0.97674614
1.2262343 5.8475256 8.142952 6.745012 3.7520888 4.04324 3.953989 3.3674424
